project/python/code/vgg11.pt (torch, 133523 bytes, 12 tensors)

weight f4 [4, 3, 3, 3]
00000000: da83 d4bd 0eb6 bebd b028 00be 6923 a3bc
00000010: 7daf c4bc 884f a1bd 249d 1f3e 0e8c 913d
00000020: c8f2 e33d eb6d 3a3e 72b0 02be 9fc0 41be
00000030: 3ed0 53bd c0f9 403e 37ed 99bc adcf b8bd
00000040: 853e 1ebe 3b86 dabd 7cf4 20bd e143 fa3d
00000050: 9db4 a9bd 3df6 08be 2541 9c3c 2e9b 2abe
00000060: 7357 243d 3fbe 37be d503 243e 4a59 a13c
00000070: d1a5 3f3e 1559 04be 22e1 1ebc ebf3 1dbd
00000080: b1e5 febd e4c7 263e ed2f f23d 1669 ed3d
00000090: 7b80 19bd b38d 3cbe c4fa c7bd 3527 10be
000000a0: 5b32 c1bc 2416 c5bd c061 3dbe f878 1a3e
000000b0: e9e5 84bc f398 89bc f053 5cbd 88cc 0dbe
000000c0: 6b48 2cbe 6441 18bd 03a0 1abd ea05 ba3d
000000d0: 3a46 1c3e 9a37 03be 36b3 553e b872 f6bd
000000e0: 6b0f 923d 8783 233c 7b1b bcbc a3ad 433e
000000f0: 8610 2a3d 6fcd eabd 1102 413d 7061 39bd
00000100: 30bc 26be bb6e 1a3e 79d6 ac3d 8301 10be
00000110: f06a 1ebe 79e7 1ebd 5f75 d73d cc76 383e
00000120: 2ff3 32bd 7b85 31be 3bb5 fabd 2bf7 efbd
00000130: d47e 743d 156a fabd 86a4 ae3d 268c 1fbe
00000140: d169 78bd 15dd 19be f1d1 28be 7cff c83d
00000150: 53f2 1f3e 9a9e 2d3e baa6 2e3d 391d af3c
00000160: 79db 7fbd be60 28be bfd4 72bb b07f 0cbe
00000170: 29a1 70bd 47fe 28be f09b 44bd 01a5 bc3d
00000180: 5196 d7bd 48f0 c0bd 8267 a53d ea45 0abe
00000190: ac2b 73bd 53c8 f43d bac1 5b3d 41e0 21bd
000001a0: 6b9d 0cbe d5dd 6abb 76d1 d7bd 760f 40be
-0.10376711 -0.09312068 -0.12515521 -0.019914346 -0.02400946 -0.078764975 0.15587288 0.071067914
0.11130291 0.18205993 -0.12762621 -0.18921135 -0.051712267 0.18845272 -0.01878987 -0.09023986
-0.15453537 -0.10670134 -0.03929566 0.12219978 -0.082864024 -0.13375182 0.019074032 -0.16660759
0.04012246 -0.17943667 0.16017087 0.019695897 0.18715598 -0.12924607 -0.0096972305 -0.038562696
-0.12446154 0.1628719 0.11825547 0.11592309 -0.037476044 -0.18413429 -0.097646266 -0.14077456
-0.023583582 -0.096233636 -0.1849432 0.15085208 -0.016222911 -0.016796565 -0.053790987 -0.13847554
-0.168245 -0.037171736 -0.037750255 0.09083159 0.15261164 -0.12814179 0.20869145 -0.120335996
0.07131847 0.009980089 -0.022962322 0.19109206 0.041519664 -0.114649646 0.04712111 -0.04525894
-0.16282725 0.15081303 0.08439345 -0.14063077 -0.15470481 -0.03879497 0.10520434 0.18014067
-0.04368895 -0.17336075 -0.12241598 -0.117170654 0.059691265 -0.12227265 0.08527474 -0.15580806
-0.06064779 -0.15025742 -0.16486336 0.09814355 0.15619783 0.16955033 0.04263947 0.02137624
-0.062465165 -0.16443154 -0.0037053076 -0.13720584 -0.058747444 -0.16503249 -0.048000276 0.092111595
-0.105267175 -0.0942083 0.08076383 -0.13503233 -0.05936782 0.11952271 0.05365155 -0.039520506
-0.13731925 -0.0035837789 -0.105379984 -0.18755898

bias f4 [4]
00000000: 1977 0fbe 760e f4bd 5515 04be 9dfc f5bd
-0.14010276 -0.11916821 -0.12898763 -0.12011073

weight f4 [8, 4, 3, 3]
00000000: a367 c53d 2433 2d3d 9c2d 94bc b463 a2bc
00000010: 362b ebbd 3300 20be a226 183e ddae dd3d
00000020: 6fdc 8bbd fcb0 ea3d ff49 80bd 03e5 0b3e
00000030: 7b20 adbd d041 203d 05bf 1bbe ef6c 0cbe
00000040: 81ef 303d 4141 a93d 2857 55bd 16cd 103d
00000050: faf1 b53d 562b 78bd 29a4 ca3d 6484 fabd
00000060: 8301 09be 27f7 b0bc 7a15 af3d 86ff 173e
00000070: abd1 06be d016 a6bb 201d 00be b9f7 17be
00000080: b701 263e 9163 08be c65f 29be f2f4 613d
00000090: a3ca f63c 70c1 953d 2ae6 80bd a019 ef3d
000000a0: 80f3 da3d f1f3 bb3d 9d25 c2bd 367f 403d
000000b0: b4f8 163e e439 8c3d 9421 f13d 404c a83c
000000c0: 2818 61bd f799 fbbd 4cfa 9d3d c1b7 39bd
000000d0: 4a85 893c ca51 07be 17c0 813a f7eb 963d
000000e0: d799 0a3d 78ef a83d 1409 0d3e cfc1 093e
000000f0: 7ee8 c03c 7a92 de3c f93e a63b deaf f23d
00000100: daa0 0a3d 4dbc 853d 1e22 de3d 7f3a 093e
00000110: 51c3 943c 3669 933c e816 693d 3ba8 653d
00000120: 49e6 b53d 4b92 5dbd dfde dc3d bd2b 3dbd
00000130: b756 883d f783 debc 3981 dcbd 790a 1a3d
00000140: b546 4bbd 88d3 c4bd cb5f 09be 6f9f c63d
00000150: 094d e4bd 01fc c0bc ee45 6fbd a7d9 29bd
00000160: 250e 08be 3aab 783d 241f 1e3e e569 9e3d
00000170: 255a e43d 799a 49bd 6355 7bbd a611 f23d
00000180: 2f7c 2ebd a9e0 273e a542 b2bd 6cea 0d3e
00000190: 55e4 2cbd 3381 19be 0a79 92bd 61b4 2dbc
000001a0: 9430 ac3d f27e 943d b6da f63d df92 e93d
000001b0: 085a 1abd c9d4 983d c24e a1bd b806 1bbe
000001c0: 2522 d1bd 36c1 013e 6161 83bd 48f8 913c
000001d0: e8b8 423d 0a15 1c3e 71f6 7a3b c995 263e
000001e0: 975d 473d 41cb 333d 503c 48bd bad9 20be
000001f0: 457b 633d 8a0a 15be e633 8fbd d486 9ebd
00000200: b6f4 753b 40e7 b13d 8318 0ebe 757e 83bd
00000210: e819 193e 97a6 da3b 3ba0 c2bc 3c74 71bc
00000220: 05c1 c13c f05e 25be f6fb aebc d3b2 bebd
00000230: b250 f3bd e1c3 f83c b2f9 bdb8 0b53 b33d
00000240: db13 4e3d 7c02 16bd 2983 653d 2e03 b5bc
00000250: 97ce dbbd 0628 a4bc 9962 12bd 7da7 d9bd
00000260: b535 e43d fa8c 09bd 864f babd 1dfd 3fbd
00000270: 9e0e d3bd 17b2 6fbd 0cc2 52bd 3c8b 25bc
00000280: e2a7 ea3c 59c2 a9bc b867 ac3d 9180 fb3d
00000290: ede9 0dbe 474b dabb f12a c9bd a62f 853b
000002a0: 23db 14be 3d70 ad3d a484 68bd 6f92 c0bd
000002b0: bc16 283e a9fa e13d a745 3a3d 7c2e 8e3a
000002c0: df09 2e3d 8f67 273e bbbe 1f3c 3152 debd
000002d0: 63a8 56bd a951 68bd fabd 223d eada 9bbb
000002e0: 869e dc3d 51e3 a83d dea3 cc3d 2295 f9bd
000002f0: f290 2a3d 9ec3 793d d4eb 9cbd 0dc6 653d
00000300: baa8 cc3d 44d2 653d e240 28be b0fc 843d
00000310: e3c3 26bd 7405 c0bd e2b8 ebbd ccd2 9e3b
00000320: 05bf 1abe 406d ddbc 6726 103e ad48 4f3c
00000330: 32ae e0bd 51c8 d0bd 0636 a1bd 8638 c1bd
00000340: 9574 21be 89ba babc ea62 0abe 58d8 153e
00000350: 40ef c6bd b8f0 27bd c39f 6abd f795 cebc
00000360: 9e20 f5bd bf73 5d3d 63cd 163e 435a e0bd
00000370: e699 0f3e b706 14bd d8c8 b43c c542 00be
00000380: 309d cabd 90f8 3e3d 6255 5a3d 4f9e ea3c
00000390: ce0e df3d 64dd cbbc 0a62 283e 8a44 c73d
000003a0: 9907 0abd 4f69 133e 8b2b 223d 9546 f73d
000003b0: aa9d 9d3d 67b6 8f3d 2bc2 a53d 9205 be3c
000003c0: f5c1 19be 4f7e d73d 3451 813d 37d8 1a3e
000003d0: e466 de3d 010e 10be d801 e6bd 885a 323d
000003e0: 9b61 133e d446 24be 1fa8 1b3d ee0a f83c
000003f0: 9e68 05bc 723c d3ba 93c6 17be 1a01 ae3d
0.09638908 0.0422851 -0.018088154 -0.019822933 -0.11482851 -0.15625076 0.14858487 0.10824368
-0.06829154 0.11459538 -0.06264114 0.1366158 -0.08453461 0.039125264 -0.15209587 -0.1371343
0.04319716 0.08264399 -0.05208507 0.035351835 0.08884044 -0.060588203 0.09894592 -0.12232283
-0.13379483 -0.021602226 0.08549018 0.14843568 -0.1316592 -0.0050686374 -0.1251111 -0.14840592
0.16211592 -0.13319232 -0.16540441 0.05516524 0.030125922 0.07312286 -0.062939 0.116748095
0.10690975 0.091773875 -0.094798304 0.046996318 0.1474331 0.06846979 0.11773983 0.020544171
-0.054954678 -0.12285226 0.07713756 -0.045341257 0.01678719 -0.13214794 0.0009899166 0.073692255
0.03383812 0.082488 0.13772994 0.13452838 0.02354836 0.027169455 0.005073425 0.1184995
0.033844806 0.06530056 0.10846351 0.1340122 0.01815954 0.017994504 0.05690661 0.05606864
0.08881814 -0.054094594 0.10784697 -0.04618429 0.066571645 -0.027162535 -0.10766835 0.037607644
-0.04962798 -0.09610659 -0.13415448 0.09698378 -0.11147506 -0.023557665 -0.0584163 -0.041467335
-0.13286646 0.06071017 0.15441567 0.077350415 0.11150006 -0.049219582 -0.061360728 0.118197724
-0.0425989 0.16394295 -0.08704118 0.13858956 -0.042209942 -0.14990692 -0.071519926 -0.010602088
0.08407703 0.072507754 0.120534346 0.114049666 -0.037683517 0.074624605 -0.0787635 -0.15139282
-0.10211591 0.1267136 -0.06415058 0.017818585 0.04753962 0.15242401 0.0038293863 0.16268076
0.04867324 0.04389501 -0.048885643 -0.15708056 0.05553748 -0.14554802 -0.06992321 -0.0774056
0.0037529892 0.086866856 -0.13876538 -0.06420604 0.14951289 0.006672691 -0.023758044 -0.014737185
0.02365161 -0.16149497 -0.021360379 -0.09311452 -0.11880626 0.03036684 -9.058732e-05 0.087560736
0.050311904 -0.036623463 0.056033287 -0.022096243 -0.10732763 -0.020038616 -0.03573856 -0.10627649
0.11143056 -0.03358171 -0.09097199 -0.046872247 -0.103055224 -0.05851945 -0.05145459 -0.010103997
0.028644506 -0.020722555 0.0841822 0.122803815 -0.13858767 -0.006661806 -0.098226435 0.004064518
-0.14536719 0.084686734 -0.05676712 -0.0940293 0.16414922 0.11034138 0.045476582 0.0010847594
0.042489883 0.16348098 0.0097500635 -0.108555205 -0.05240668 -0.056718502 0.039731957 -0.004756321
0.107724234 0.08246482 0.09992193 -0.12186648 0.041642137 0.06097757 -0.07662168 0.05609708
0.099931195 0.056108728 -0.16431001 0.06493509 -0.040714156 -0.0937604 -0.11509873 0.0048469063
-0.1511193 -0.027029634 0.1407715 0.012651605 -0.10970725 -0.10194457 -0.07871632 -0.09434609
-0.15767129 -0.022794025 -0.13514295 0.1463331 -0.09713602 -0.04100105 -0.057281267 -0.025217993
-0.11969112 0.054065462 0.14726786 -0.10954716 0.14023551 -0.036139216 0.022068426 -0.1252547
-0.098932624 0.046623766 0.053304084 0.02863994 0.10891496 -0.02488584 0.16443649 0.0972987
-0.033698652 0.14395641 0.039592307 0.12074009 0.07696088 0.07017212 0.08093675 0.023196016
-0.15015395 0.10522138 0.063143164 0.15121542 0.108594686 -0.14067842 -0.112308204 0.04354337
0.14392702 -0.16042644 0.03800213 0.03027865 -0.008142618 -0.0016116037 -0.14821844 0.08496304

bias f4 [8]
00000000: 92e1 45bd e969 0c3e 0cb7 cd3c 26c5 70bd
00000010: 3355 883d 0144 153e 5830 563d 1a2a cabc
-0.048310824 0.13712277 0.025111698 -0.058781765 0.066568755 0.14576723 0.052292198 -0.024678279

weight f4 [16, 8, 3, 3]
00000000: 4a0f 503d e353 313a 8484 2b3d 1e75 e83c
00000010: 7984 683c eb25 dfbd 45df e6bd 59d4 e9bd
00000020: 3a1f 12bd bc1b 99bc bfde 76bd 4b7c 46bd
00000030: a555 c43d a9f7 0f3b b8e8 83bd 9d68 85bd
00000040: 7f56 e7bd 84e3 e13d d26f cc3d d781 b63c
00000050: dff6 c8bd 9ba6 81bd 1088 493d 0595 3abc
00000060: 8654 b5bc c537 dc3d c39f 373d dd88 9abd
00000070: 37eb 083d 67df 17bc a05a 413d e411 65bc
00000080: 320b e4bd 5187 26bd 0d7d 8c3d 0647 ee3d
00000090: 44d0 963d e131 14bc 1175 ef3d 0111 64bd
000000a0: 8ab7 a13d 348c 2b3b 460e e9bc 5512 8c3c
000000b0: 56ed d13d f179 a6ba 9787 b03d 209f e6bd
000000c0: 4278 ec3d 0253 23bd ef89 e03d f5fa acbd
000000d0: 44b5 a7bb 573b b2bd ef59 8bbd 4d8e d73d
000000e0: d555 9dbd f02d dbbd 55cc 743b 8887 9ebc
000000f0: a203 ab3d e837 cfbd 9ff8 603c 1312 5cbd
00000100: 6d55 243a 1672 98bd 2f8c c33b c200 963d
00000110: b8e4 8c3b 0f4f f63b 5597 4c3d bbf9 a43d
00000120: 3ed2 6bbc 9a4c ddbd 4de5 aabd e02d 41bd
00000130: 4b7e 1fbb ec88 573d 2bfa 90ba 9c67 be3d
00000140: dd48 e43d f0de e6bd 2137 893d 5769 41bb
00000150: 6d73 cabd 57ad f43b 17f5 6d3d 9f19 76bd
00000160: 3bb3 893d 3d63 b9bd 77c4 0a3d ccfa 5fbd
00000170: 0504 adbc 2e32 d13b 3d7e e5bc f87f 123d
00000180: 5f37 4f3c 4c4f 6b3d 87e4 5cbc c1b6 5fbc
00000190: 01fc d2bd 6967 f83c 9f84 84bd d8d2 79bd
000001a0: 8cbd d6bc d9b3 3d3d 7f18 60bd eeb1 eabd
000001b0: 37ab c9bc 2a20 5bbb da15 8bbd e01b d6bd
000001c0: 06ea 07bd 4edd a93d 982b b4bc 7e1e 0f3d
000001d0: 595f 4ebc b588 043d 810d e7bd 0bf8 e5bc
000001e0: f2a6 873c 46ec 823d 4fe3 8fbd 9ceb 93bc
000001f0: 458a 79bc 9e96 c43b 46ac 453d 38cf 7abd
00000200: 035e a43d 0e16 1e3d 28a0 2dbd 4a28 53bc
00000210: 8612 c8bd e8f6 9a3c af7d f13d cae5 33bb
00000220: 27c4 29bd a147 883d a826 25bd e73d d5bb
00000230: 3556 8c3c e215 39bd 2683 2dbd 7e0a cebd
00000240: 069a 7dbd ba16 cb3d 149e dd3d de0f 3abd
00000250: 8803 afbd 9a94 bfbd b4f3 513c 4a8a 233d
00000260: 0f20 ecbc 1692 df3c ea50 e5bd 0d3c 78bd
00000270: 981d 81bc b988 e7bb dfac 043d 32d8 a83d
00000280: 184f b7bd b9cb 993d 7ba2 debd ad16 113d
00000290: eaa4 d73d 802b cdbc 6729 e93d 45e4 7e3d
000002a0: 1cd2 a4bd 8f4c a3bd c815 893d 2936 43bd
000002b0: 3b16 e53d 3402 953d 8ca9 c8bd e62d a53d
000002c0: f371 6b3b 5f9b 373d bc69 20bc 5f8c dbbd
000002d0: 8684 adbb b3c8 dbbd 3c99 8f3d 879a 8e3d
000002e0: 43b0 aebd 4711 c33d a337 33bc 7550 86ba
000002f0: d286 d9bc 3ee8 9dba b80b ac3d e466 723d
00000300: d8d9 8ebd 552d 8e3d fdf1 8dbd eaa0 443d
00000310: 1eb2 8cbd d9e1 c5bd 5ddd 763d 7638 9abd
00000320: dc2f a53d af0b 433d f92e 90bd aae3 d23d
00000330: 551b 39bd 2722 e0bd b39a bc3c 287f 94bd
00000340: b9d0 893d 221c 933d 8187 b3bd effb da3d
00000350: 7e7f ebbd bbc5 cbbd 8b46 a9bd 89ee 1bbd
00000360: 2c1c a73c 3505 113d a166 b8bd 68b5 30bd
00000370: e9ce 4cbd 9d6e bd3d 8552 9abc f042 96bd
00000380: de41 b7bd bd18 023d 83a9 da3d 7e1f 94bd
00000390: 5bc9 af3d 53a7 00bd 5daf 613d e226 e7bd
000003a0: 6c1e c13c 3edf 653d 157c c83d 2c0c 7b3d
000003b0: c475 f13c d9d8 973d 4d27 42b9 9d54 dc3d
000003c0: acb9 8d3c ddcf a53c 61ff ccbd 6f41 d7bd
000003d0: 7e08 ca3c a59e febc b082 423d caa6 7f3c
000003e0: 261b 493d e123 3ebd 22d4 473d 8feb cebd
000003f0: e328 ddbd 3638 093d 31fb bcbd 99d5 a0bd
0.05079583 0.0006764514 0.041874424 0.028376158 0.01419174 -0.10895904 -0.11273054 -0.11417455
-0.03567431 -0.018689983 -0.06027102 -0.04845838 0.09586648 0.0021967685 -0.06440872 -0.06514094
-0.11295795 0.11029723 0.099822655 0.02227871 -0.09812712 -0.063306056 0.049202025 -0.011388068
-0.02213503 0.10752825 0.044830095 -0.07545636 0.033427443 -0.009269572 0.047205567 -0.013981316
-0.11134948 -0.04065639 0.06859789 0.116346404 0.07363942 -0.009045095 0.116922505 -0.05568028
0.078963354 0.0026176097 -0.028449189 0.017098585 0.10250346 -0.0012701136 0.08619612 -0.112608194
0.11546375 -0.039874084 0.10963809 -0.08446304 -0.005118044 -0.087027244 -0.06804263 0.105251886
-0.07682387 -0.10702121 0.0037353237 -0.019351736 0.08350302 -0.10118085 0.013731151 -0.053728174
0.0006268833 -0.07443635 0.005967639 0.07324363 0.0042997263 0.0075167487 0.04994901 0.08055445
-0.014393387 -0.10805626 -0.08344517 -0.04716289 -0.002433675 0.052620813 -0.0011060884 0.09297106
0.1114671 -0.11272991 0.06699968 -0.002951225 -0.09885297 0.007466953 0.058095064 -0.060083028
0.067236386 -0.09052131 0.03387877 -0.054682538 -0.02112008 0.0063841557 -0.028014297 0.03576657
0.012647479 0.05744867 -0.01348222 -0.013654412 -0.10301972 0.030322747 -0.06470608 -0.060992092
-0.02621343 0.046314094 -0.05471086 -0.11459719 -0.024617774 -0.003343592 -0.06791277 -0.104545355
-0.033182167 0.08294164 -0.021993443 0.03494119 -0.012595975 0.032356936 -0.112818725 -0.028072378
0.016559098 0.06392722 -0.070257775 -0.018056683 -0.01523072 0.0059994003 0.048259996 -0.061232775
0.08025744 0.03859525 -0.042389065 -0.012888024 -0.09769158 0.018916562 0.1179155 -0.0027450197
-0.04144683 0.06654287 -0.04032007 -0.0065076235 0.01713095 -0.045186885 -0.0423614 -0.10060595
-0.061914466 0.09916444 0.10821167 -0.04542529 -0.085455954 -0.093545154 0.012814451 0.039926805
-0.02882388 0.027291339 -0.11197074 -0.060604144 -0.015761182 -0.007065859 0.032391425 0.08244361
-0.08950633 0.0750956 -0.108708344 0.035422016 0.10529502 -0.025045156 0.1138485 0.062229414
-0.08047888 -0.07973587 0.066936076 -0.047659073 0.11185881 0.07275811 -0.097979635 0.08065395
0.0035926073 0.044825908 -0.009790834 -0.10720133 -0.005295339 -0.1073164 0.07011649 0.069630675
-0.08529713 0.0952478 -0.010938558 -0.0010247367 -0.026553545 -0.0012047363 0.08400673 0.059180155
-0.06975144 0.0694224 -0.06930921 0.048005022 -0.06869911 -0.09662218 0.060269702 -0.075303
0.08065769 0.047618564 -0.07040209 0.1029733 -0.04519208 -0.10944014 0.023022985 -0.07250816
0.06729264 0.071831 -0.0876608 0.10692584 -0.114989266 -0.099498235 -0.08265408 -0.03806928
0.020399176 0.035405356 -0.0900395 -0.043141752 -0.050002012 0.092496134 -0.018838177 -0.07336986
-0.0894811 0.031761874 0.10676863 -0.07232569 0.085833274 -0.031409573 0.05509888 -0.11286713
0.023574077 0.056121103 0.09789292 0.061290905 0.0294751 0.07414407 -0.00018515922 0.10758326
0.01730045 0.020240718 -0.10009647 -0.10510527 0.024662253 -0.031081507 0.047487915 0.01560373
0.049098156 -0.046420936 0.04878629 -0.10103523 -0.10798814 0.033500873 -0.092275985 -0.078532405

bias f4 [16]
00000000: 12af 973c 25ca 813d 9523 dbbd 31c8 84bd
00000010: 70d7 8a3b e8f6 dd3d d0c4 b3bc ef1b 76ba
00000020: ccdf c8bc 76e0 a83d 340d babc 32a2 d3bd
00000030: 659a cebd 29b9 9e3d 0884 08bc 8569 32bc
0.018516097 0.06337384 -0.10700146 -0.06483496 0.004237108 0.10838109 -0.021944433 -0.00093883177
-0.024520777 0.082459375 -0.022711374 -0.10333671 -0.10088042 0.0775016 -0.00833226 -0.010889416

weight f4 [32, 16, 3, 3]
00000000: 4d3d 7a3d 0b9d 673d b498 4b3b 485f 2a3c
00000010: 07ae 93bd e19d d3bc 7d82 693d 8dee bb3c
00000020: 38bb faba a3bf 8fbd 7f34 8d3c dc72 96bd
00000030: 1309 733d b661 3abd 437e 3abd 1e68 08bc
00000040: 6a63 8c3d 887b a8bd 5fdb 713c 67e2 2d3d
00000050: cdef 7d3d 5fe8 883d 9a71 7bbd 2140 50bd
00000060: 93a4 2d3d fd6d efba b5ea debc e946 343c
00000070: 8071 75bd c96c 2b3d cac4 abbc f3d5 b5bb
00000080: 73ca 7bbd 24f3 9a3d ada2 3ebd 9b4e 0abd
00000090: 7084 833d edf9 9cbd 392f 1fbc 8901 813d
000000a0: e6d4 8b3d 7233 51bd cb9b 83bd df2e 29bd
000000b0: 1dda d5bc d141 7fbc 1dd2 76bd f174 0e3c
000000c0: 92eb f8bc 0005 8abd 160d 28bb 72a2 c63c
000000d0: f986 39bd 5ab0 553a 0c7f 2ebb 32ea 113d
000000e0: bbba 95bd 1e60 7dbc 6f84 86bd 57cf 1bbd
000000f0: a0b1 f33c 10cf 9a3c 7ad6 b2bc 4aaf a2bd
00000100: 66fa 183d 2a66 9dbd 6227 8d3d 8649 483d
00000110: 8182 873d 3074 76bd 8afc 2d3d a64d ac3b
00000120: 3825 79bd 2f33 cf3b 3f6c 68bd c711 57bc
00000130: db7a 58bd 1833 9f3d 553e bdbc 0419 3b3d
00000140: ef2b c93c df46 513d 5681 33bd 0884 90bc
00000150: 551a 053c 7103 a13d 04a9 92bd 8382 223d
00000160: 8a94 49bd 8e6c 683d 33f0 17bb 2f8b 1cbd
00000170: 8b1c 5abb 9744 9a3d 9995 653d 3f70 673d
00000180: d81f 213d 1181 803d 5bf1 9e3d 0c06 4cbd
00000190: 81d6 f5bc 2cd4 4ebc 5a87 67bd e161 053d
000001a0: 836b f9bc 6955 07bc bb44 c43b 0a09 9abc
000001b0: 8b2f 8d3d 2d9f 833d 1c25 a0bc 5492 843d
000001c0: 525e 493b 20cb 4b3d c921 59bd 9fa7 283b
000001d0: ddcb c43b 0179 813b 0f6c 553c d432 9abd
000001e0: 4c07 9d3d 8b22 0f3c 5f9d a03c 86fa 823d
000001f0: 8333 c43c eed4 783d d139 8abd f922 053d
00000200: ff6b 8bbd f6fe 9ebd 0e50 b33c b79b 9dbd
00000210: 1974 a2bd 2c5b 9c3d ef5f a23d 3bef b2bc
00000220: d17b 05bc 8159 963d 7104 2e3d e1b1 f0bc
00000230: 28f7 e4bc 038a a5bd 2a4e aabd 008a 04bd
00000240: 2e7b 17bd a25b 20bd f9c1 5bbd 9d33 84bd
00000250: 3207 b23c 7ede 523d d10f 143d 465f 5c3d
00000260: 45be c83c 59ee 49bd 6194 45bd bbef 093b
00000270: 72f5 a13d d4ce 0bbd 4e0b 973d f77f a23c
00000280: fb76 9d3d b6f4 dcbc e19b 9b3d cbaf a7bd
00000290: 3ed8 873c 4279 8c3d f4cf babc 5d96 e0bc
000002a0: 70e5 73bd 196c 08bc b8f0 bdbc 8e5c 17bd
000002b0: 6205 633b 93d0 163d b7e3 4b3d b46d 67bc
000002c0: 8521 953c 35eb 973d 3180 9a3d 9d3b f63c
000002d0: 5f51 793d bc8c e93c 7acb 3ebd 75fe 48bd
000002e0: 9ad2 40bd 938e 6e3c 93bc 61bc 529b ddbc
000002f0: 1a43 b1bb 20d3 973d 1f21 b33c 79c6 a0bd
00000300: 3636 9d3d 4334 4f3d 937f c5bc b44b febc
00000310: 5d58 663d d598 403d fae4 18bd bccd 8ebd
00000320: a61f 95bd 0dbd 89bd e43f 9fbd aa40 7a3d
00000330: c9dd 253d 02ce 053d 68de 813d 13c1 77bd
00000340: 2b9b a2bd 10b1 943c ef70 fa3c 7aa2 583d
00000350: 8727 fe3c 0f97 2b3d 8675 7e3c e00f d1bc
00000360: a88c 0e3d bae6 ebbc 0590 54bd 973d a1bd
00000370: a931 0abd 5773 3dbd 0fcb 4d3c c000 fe3c
00000380: 8492 4ebd 24e1 7fbd d317 f239 ed73 193c
00000390: fef5 613d e259 5abd 53fc 5a3d ccd3 9a3d
000003a0: 29e8 843d 8bd1 173d 5b84 7abd ef18 9cbb
000003b0: 6522 95bc 20d7 f2bc 5a50 57bd 9356 c93c
000003c0: f3c1 273d 7671 9b3b 08d8 81bb 0d91 67bd
000003d0: e578 23bd 1210 b7bc a8eb a13d fd0e 7ebd
000003e0: 7c40 a93d 9bd6 73bd 4d73 07bd f8b4 a93d
000003f0: 0ded 3cbd 078e d83c 71c5 d0bc f5d1 52bd
0.061093617 0.056546252 0.003106636 0.010398693 -0.072109275 -0.025832118 0.05700921 0.022940898
-0.0019129282 -0.07018974 0.017236946 -0.073461264 0.059334826 -0.04550334 -0.04553057 -0.008325605
0.06854899 -0.08226687 0.014761775 0.042452242 0.06199627 0.06684946 -0.061387636 -0.050842408
0.04239328 -0.0018267032 -0.027211526 0.011003234 -0.059922695 0.041851792 -0.02096786 -0.0055491864
-0.061472367 0.07565907 -0.04654186 -0.03376637 0.06421745 -0.07664857 -0.009715849 0.06299121
0.068277165 -0.051074453 -0.064261995 -0.041304465 -0.026104981 -0.015579657 -0.060258973 0.008694873
-0.030385766 -0.06739235 -0.0025642565 0.024247382 -0.045294736 0.00081515836 -0.0026626019 0.035623737
-0.07311007 -0.015464811 -0.065682285 -0.03803953 0.029747784 0.018897563 -0.021830786 -0.0794359
0.037348174 -0.07685502 0.06892277 0.048898242 0.066166885 -0.0601694 0.04247717 0.00525828
-0.06082651 0.00632324 -0.056743857 -0.013126797 -0.05285154 0.07773417 -0.023101011 0.045678154
0.024557082 0.05109298 -0.043824516 -0.017641082 0.008123954 0.078619845 -0.071611434 0.039675247
-0.049213924 0.05674415 -0.0023183941 -0.038218673 -0.0033281173 0.07532614 0.05605087 0.05650353
0.03933701 0.062746175 0.07760879 -0.049810454 -0.03000951 -0.012623828 -0.056525566 0.032564048
-0.030446773 -0.008260109 0.0059896386 -0.018803138 0.06893834 0.06426845 -0.019548945 0.064732224
0.0030726385 0.049754262 -0.053010736 0.0025734676 0.0060057477 0.0039511924 0.013026251 -0.07529226
0.076674074 0.008736263 0.01960629 0.0639544 0.023950344 0.06074994 -0.06749309 0.032504056
-0.06807708 -0.07763474 0.021888759 -0.07695716 -0.079323 0.07634577 0.07928454 -0.02184259
-0.008147196 0.0734129 0.042484704 -0.029381694 -0.027949885 -0.08082964 -0.0831569 -0.03235817
-0.036982708 -0.039149888 -0.053651784 -0.06455157 0.021731947 0.051481716 0.036147896 0.053801797
0.02450479 -0.04929957 -0.04823721 0.0021047432 0.07908143 -0.034132794 0.07375203 0.019836409
0.07688709 -0.026972156 0.07598091 -0.08187827 0.016582604 0.068590656 -0.022804238 -0.027415449
-0.05954498 -0.008326554 -0.023186073 -0.0369535 0.003464066 0.036820006 0.049777713 -0.014125276
0.01820446 0.07417909 0.07543982 0.030057723 0.060868617 0.02850949 -0.04658077 -0.049070794
-0.047075845 0.0145603595 -0.01377787 -0.027051602 -0.0054096105 0.07413316 0.02186638 -0.07850356
0.076763555 0.05058695 -0.024108684 -0.031041957 0.056236614 0.047020752 -0.037327744 -0.069728345
-0.07281427 -0.06725512 -0.07775858 0.061096825 0.040494714 0.032667167 0.06341249 -0.060486864
-0.07939752 0.018150836 0.030571429 0.052889325 0.031024707 0.041892108 0.015530949 -0.025520265
0.03480211 -0.028796542 -0.05189516 -0.078730755 -0.033738766 -0.046252575 0.01256062 0.031006217
-0.050432697 -0.06247057 0.00046175587 0.009366018 0.055166237 -0.053308375 0.05346329 0.07559928
0.064895935 0.03706507 -0.06116138 -0.0047637145 -0.018204877 -0.029643595 -0.052566864 0.024577415
0.04095645 0.00474375 -0.0039625205 -0.056534816 -0.039910216 -0.02234653 0.07906276 -0.062026013
0.082642525 -0.059530836 -0.033068944 0.0828647 -0.046124507 0.026434911 -0.025484772 -0.051469762

bias f4 [32]
00000000: 340b 083d 3f86 733d a213 19bd bedd aa3d
00000010: ae27 9c3d 33fa 383d 5097 933d 0900 d3bc
00000020: 104d 9ebd f2d3 57bc 69af 1d3d 8857 473d
00000030: bfa7 ae3c c483 5bbb b3b7 623d 2206 8cbd
00000040: c1b8 b3bc f6dd 36bc 19ab 4abd 72a4 7dbd
00000050: d023 a43d ebc0 4ebd ee4c 88bd 670b 113d
00000060: 96cc 353b c457 b13c 333d 0b3d 4a07 54bd
00000070: 4999 80bb 7e21 24bc 9c67 6b3d 51a4 05bd
0.03321381 0.0594542 -0.03737224 0.08343075 0.07624756 0.045160484 0.07206595 -0.025756853
-0.07729542 -0.01317309 0.038497362 0.04866746 0.021320222 -0.0033495286 0.05535097 -0.06837107
-0.021938683 -0.011161318 -0.049479578 -0.061924405 0.08014643 -0.05047695 -0.06655298 0.035411265
0.002774035 0.021648295 0.03399391 -0.051764764 -0.003924523 -0.010017751 0.057471856 -0.032627407

weight f4 [64, 32, 3, 3]
00000000: 3719 533d 88fe 863b 0e33 cf3c 5f80 03bd
00000010: d9e3 053d 292f 4c3d 1493 033c 36aa 4ebd
00000020: d81a 54bc 26e2 1cbd 1e31 0ebd f6fe d0bc
00000030: 5101 d4bc 1465 6c3d 7639 493c f1cd d63c
00000040: e49b 2f3d 724d 5dbd 5c94 073d 15da 2c3d
00000050: 5c7d 483d f106 7f3c 7adf 933b 0e9a b5bc
00000060: 8a29 1abd 2af6 05bc c011 6d3d 244c cb3c
00000070: d4db 30bc 442c 1d3d 2c7f 05bc 7211 073d
00000080: a08c cb3c 045a 66bd ec0a dbba 835e 32bd
00000090: 277a 3abd 0aba ef3c e18a 363d 8213 0e3d
000000a0: 4e82 cfbc 901a 32bd a409 813c bc52 983c
000000b0: de50 dc3c f64c 61bd 0294 24bc 6a3e 69bd
000000c0: 4822 38bb 192a cb3c 7bab 293c 428e 6f3c
000000d0: 8aec 67bd 8ff9 393d 197b 3dbd ebfe 4b3d
000000e0: 4348 30bc 50b6 ed3c 93d1 20bd 313b c7bc
000000f0: 5341 c5bb 6864 6fbd b46f 0bbc 747e 2ebd
00000100: 3c55 4d3c 3027 c7bc d10b 2fbc ddd9 8d3c
00000110: b342 013d 4901 55bd 6b8a 183c 717f bb3b
00000120: 7c8f ae3c 4ac4 633d a067 58bd 9ab4 2ebc
00000130: 6bd6 d63c 4fcb 2a3d 4ceb 2c3b ea35 1ebc
00000140: 43a5 4fbd 715e 61bd caf1 41bd 4e18 423c
00000150: a0bb 113d fa47 dd3c 95bb 69bd 86f2 87bc
00000160: 1756 053d 1f7d bb3b 4cc1 1e3d e29f c5bc
00000170: 6d11 1c3d ecbe 213c 04ff db3c 27e7 1ebd
00000180: 3abb fd3c 744f 14bc 69e1 07bc 930d ed3c
00000190: 663c 18bd e8e5 b8bc 01e3 8f3c 5506 283d
000001a0: eb08 593c 937d 5cbd e4ea 40bc 2c30 cb3c
000001b0: 8ce1 4f3d ce71 d3bc 11ff 453b b202 a2ba
000001c0: 8c27 483d b42e 393d 165b 303d 75f6 d53c
000001d0: a417 ccbc 8feb 69bd b136 37bc ac91 fe3a
000001e0: 0582 223c d9ff 473d acfd a3bc 2d55 edbb
000001f0: 31f9 013b d82e 433d 3956 41bd f74c 61bd
00000200: 6101 90bc 2007 6c3d 0fda 2c3d f4e6 1abd
00000210: 26a7 17bd 037e 053d 91ef e93c fc1b 303d
00000220: 7a3b df3c 545e 25bd 7dd0 9abc 1aeb c43c
00000230: ec00 21bb 31cf 503d 7033 4c3d eea4 84bc
00000240: aa5c 573b 5bb4 cabc dcc0 833b 6d22 81bc
00000250: 4b8d 9d3c 4c1b b6bc 6410 653d 8f17 33bd
00000260: 8fea 0f3c 6eb4 45bd fceb df3c 05e4 05bd
00000270: e067 27bd 1e46 f6bb f8b8 4a3d a2a3 b0bc
00000280: d387 0ebd 5a72 0d3d 9fae 813c 448f 34bd
00000290: 5219 40bd dc48 563c 87f3 0c3d 46df 19bd
000002a0: 1f38 6f3c 31f8 59bd aadb ffbc 4e71 26bd
000002b0: c374 383d b722 79bc e509 583d 3c25 82bc
000002c0: f38b 9bbc 20af 003d d63f 133d 0e6b 5d3c
000002d0: fb94 a13c a782 b83c ea8b 5fbc 6b7a 6cbd
000002e0: c0b3 66bd 3da3 ca3c fd9e 20bb 8587 c23c
000002f0: 071a 233d 8e85 c6bc db47 14bb b01a 99bc
00000300: a56c 42bc 0ebd 2c3d a8d2 d2bc 3abb 51bd
00000310: ec28 113d d56d 133d afc7 5dbc 355b 3d3d
00000320: 0fa2 2fbc 908c 843c 2f1f 9d3c d0f3 6abd
00000330: 4021 6d3d d707 4c3d cda8 32bd 7450 59bd
00000340: fd64 bdbb c01a 323c bb4b 67bd 55a1 55bd
00000350: 9695 453b d5d0 343d 8e90 41bc 7aac ed3c
00000360: 638e bcbc 845e 1cbc ad78 543d 583a 713d
00000370: 0871 04bd 9e2c 213d f619 2e3c c349 3d3c
00000380: e8c3 d6bc 6b3d 0d3d a712 323c 9197 993c
00000390: caff 38bd 2498 fb3b 964a 2bbd 6724 f0bb
000003a0: ce8d 6b3d 0ae7 563b 47e8 8a3c 81f8 253d
000003b0: 65df cb3c 9c63 aabc 3692 64bc f5a2 623d
000003c0: 0029 263c 304f 27bd 4b5c 8e3c fda5 313d
000003d0: d5af e2bc 989b e2bc 7eee f13b 3ee2 973c
000003e0: c19d 923c afdd dcbc 079a 173d 8241 5e3d
000003f0: f9df 9e3c c83c 1dbd 0e73 1e3d a484 5b3d
0.05153772 0.004119698 0.0252929 -0.032104846 0.032687996 0.049849663 0.008030672 -0.050455295
-0.012945853 -0.03830161 -0.03471481 -0.0255122 -0.025879534 0.057713583 0.012281766 0.026221247
0.04287328 -0.054028936 0.03310047 0.042200167 0.048947677 0.01556562 0.0045127245 -0.022168186
-0.03763727 -0.008176366 0.057878256 0.02481658 -0.010794599 0.038372293 -0.008147996 0.03297562
0.024847329 -0.05623819 -0.0016711629 -0.043547165 -0.04552665 0.029263515 0.04456604 0.034686573
-0.025330689 -0.043482363 0.015751667 0.018594138 0.02689403 -0.055005036 -0.010045053 -0.05694429
-0.0028096605 0.024800347 0.010355826 0.014621319 -0.056622066 0.045404013 -0.046259973 0.049803656
-0.010759416 0.029017597 -0.039262366 -0.024320217 -0.00601975 -0.058445364 -0.008510519 -0.042601064
0.0125325285 -0.024310678 -0.01068397 0.0173158 0.03155775 -0.05200318 0.009310345 0.0057219793
0.021308653 0.055607118 -0.0528332 -0.010663176 0.02622529 0.041697796 0.0026385365 -0.009656409
-0.050694715 -0.055021707 -0.04734973 0.011846615 0.035579324 0.02701186 -0.057063658 -0.016595136
0.032552805 0.0057217027 0.03875856 -0.02412409 0.038102556 0.0098721795 0.026855 -0.038794663
0.030973066 -0.009052146 -0.008293488 0.028937137 -0.037166975 -0.022570565 0.017564299 0.041021664
0.013246755 -0.053830694 -0.011774752 0.024803244 0.050752208 -0.025811102 0.0030211846 -0.0012360422
0.04886584 0.045210555 0.043055616 0.026118496 -0.024913616 -0.05710941 -0.011182473 0.0019422076
0.009918694 0.04882798 -0.020018421 -0.0072428198 0.0019832368 0.047652096 -0.04720137 -0.05500504
-0.017578783 0.057623982 0.042200144 -0.03781791 -0.03702464 0.032590877 0.028556617 0.042995438
0.02725004 -0.04037316 -0.018898243 0.024037886 -0.00245672 0.050978843 0.049853742 -0.016191926
0.0032861629 -0.024744203 0.0040207934 -0.015763486 0.019232413 -0.022229813 0.055923834 -0.04372364
0.0087839505 -0.048267774 0.027334206 -0.03268816 -0.040870547 -0.007515683 0.049492806 -0.021562401
-0.0347975 0.034532882 0.015830336 -0.04408194 -0.046899147 0.0130788945 0.034411933 -0.037566446
0.014600783 -0.05321521 -0.031232674 -0.0406354 0.045033228 -0.015206031 0.05274381 -0.015886895
-0.018987631 0.031417012 0.03594955 0.013514293 0.01972436 0.022523237 -0.013644198 -0.057733934
-0.056323767 0.024736041 -0.0024508827 0.023746261 0.039819743 -0.024233606 -0.0022625837 -0.018689483
-0.011866723 0.042172484 -0.025735214 -0.051203944 0.035439417 0.035993416 -0.013536378 0.04622956
-0.01071979 0.016180307 0.019179909 -0.057361424 0.057893038 0.049812164 -0.043618012 -0.05305524
-0.005779861 0.0108706355 -0.056468707 -0.05215581 0.0030148975 0.04414447 -0.01181425 0.029012907
-0.023017114 -0.009544019 0.051872898 0.05889353 -0.032334358 0.03934919 0.010626307 0.011553231
-0.026216462 0.0344824 0.010868705 0.01874903 -0.045165814 0.0076780487 -0.041819178 -0.0073285582
0.057508282 0.0032791519 0.016956462 0.040520195 0.024886796 -0.02079945 -0.013950875 0.05533119
0.010141611 -0.040847003 0.017377993 0.04337119 -0.027671734 -0.027662084 0.007383167 0.018540498
0.017897489 -0.026961176 0.037012126 0.054261692 0.019393908 -0.038388044 0.038683943 0.053593293

bias f4 [64]
00000000: 864b 55bb a1ba 8cbb 50d6 123d 290d 673c
00000010: a1b5 74bd 9859 84bd e710 15bd b4e8 56bd
00000020: f785 133d 9ef3 b13c 27bf 4dbd aff3 50bd
00000030: 2ed4 3fbd cd81 53bc 9af3 de3b 5d8f af3c
00000040: b09a 953c 6b1b 833c ba73 03bd 07ba 073d
00000050: 2a15 953c 97aa 343d 2f26 5b3a 3bea 5d3b
00000060: 861f febc 1d6b 483d be45 1bbd 5959 2d3d
00000070: df61 b43c 7f9a 6ebd 7aa5 48bd 17e7 40bd
00000080: 7563 673d ba11 b83b 3e1c ae3c dc13 20bd
00000090: 8c10 ef3c c009 47bd d64e 15bd 763d c63c
000000a0: 24fc e3bc fd77 563d 7f71 0ebd 8178 3d3b
000000b0: 1821 58bd 429f da3b b3e0 faba 0f14 a039
000000c0: 237e 8c3c 99b6 b3bc 5308 0c3d fc08 4e3d
000000d0: 0e03 eb3c 3189 5e3d e790 093d cb23 f6bc
000000e0: 7d03 30bd 1f27 17bd 718d 8fbb 4a33 09bb
000000f0: 9e90 55bd e905 263d d7b1 1ebd 3e5c 503d
-0.0032546236 -0.004294709 0.035848916 0.014102259 -0.059743527 -0.06462401 -0.036393072 -0.052468017
0.03601643 0.021722611 -0.050231125 -0.051013645 -0.04683321 -0.012909365 0.006803942 0.021430666
0.018262237 0.016004285 -0.032092787 0.033136394 0.018198568 0.044108 0.0008359877 0.0033861536
-0.03102089 0.048930276 -0.03790831 0.042321537 0.022019325 -0.058252808 -0.048985936 -0.047095384
0.056491334 0.0056173475 0.021253701 -0.03908144 0.029182695 -0.048593283 -0.036452137 0.024199229
-0.027830191 0.052360523 -0.034776207 0.0028910937 -0.052765936 0.006671817 -0.0019140452 0.00030532523
0.01714999 -0.021937655 0.034187626 0.050301537 0.02868798 0.054330055 0.033585455 -0.030046364
-0.042972077 -0.036902543 -0.004380875 -0.0020935112 -0.05213987 0.04053298 -0.03874382 0.05086922

weight f4 [2, 3136]
00000000: 9dba a3bc 09f3 c1ba f21e 0dbc 4596 2b3c
00000010: 116e 143c d995 3d3c 1e0d 523c bb45 873c
00000020: e3a8 f7b9 6ec6 4d3c 365d 5e3b b90d 2d3c
00000030: 737e abbc adec 12bc d152 98bc 81e5 7cbc
00000040: ec79 b53b 8360 d93b 3d6c 2d3c 8f91 fdb8
00000050: c92e a9bc 3170 243c b498 3c3c 4759 a03b
00000060: e965 8dbb df4e d6bb ffa0 7f3a c710 a03c
00000070: 48b0 463c 979c ce3b a585 a23a b576 143c
00000080: f588 f2bb 4c32 5cbb 6aed e239 78fa 943c
00000090: e665 463c f3a7 6ebc 8f73 9cbc ee45 513b
000000a0: 65ea 91bc 7cb5 babb 0944 623c e313 b4bc
000000b0: 606c 9bbc def9 2d3c a748 68ba d00b e4bb
000000c0: a4a4 443c 708b 42bc 2f7a 8fbc 487f 95bb
000000d0: 6c05 4bbc 5e1b 9f3b 6873 09bc 0a52 293c
000000e0: dc4a a53a 9f71 43bc 55b6 24bb c863 5ebc
000000f0: 97a6 ccbb 0d05 043b 3d33 80bc 8183 e13b
00000100: fe32 ee3b 5b5c 58bc d377 45bb 49e9 2aba
00000110: 3b66 2ebc 82ca 2bbc 65cd 69bb 8cfa 273c
00000120: 8b48 2cbc 6557 8abc 0f8a a4bb bac1 debb
00000130: 8340 82bc a74b 2a3c 24e2 1e3c f799 803c
00000140: 8f51 8c3c f48f 4dbc 8140 243c 523b 593c
00000150: ca7c 903a 6e57 5d3b f70c 3ebb d387 633b
00000160: 7994 c03b 84cb 57bc 42c0 193c 094f 3cbc
00000170: 76df 24bb 21d6 f73b 8b06 d83b e069 313b
00000180: 95ca 113c 8bf5 a8bb ab22 90bc 4672 a13b
00000190: 1a63 1c3c a26b fabb 7257 62bc 0b14 823c
000001a0: 6af0 7dbc 5361 4ebc 37c7 1e3b c08a 0a3b
000001b0: dc48 3abb ca96 3e3b 2622 82bc 3bd1 883c
000001c0: 25a9 503c 65be 793c 0aa4 803c 2a5d 853b
000001d0: ba58 513c 3c47 82bc e7ba 1c3c 93f5 e73a
000001e0: 65ee aebb 93f8 5239 ee11 713b ea76 063c
000001f0: 2a5d c9bb bc54 d1bb dc8a e639 c56a efbb
00000200: 8cac 5b3c 9367 5b3c 976c 053c 8787 56bc
00000210: 1853 693c bb19 25bc 01ee cbb9 f399 433c
00000220: 71cf 433c 4e83 09bc b7a9 99bb a8f4 84bc
00000230: 09de 68bc 1ac9 233c 64f9 c2ba 726b 16bc
00000240: a18c 513c 790f 7b3c 6932 28bc 3d9c c93b
00000250: 1646 c5b9 8514 3cbc 4ac0 c73b 8e15 c9bb
00000260: e698 2e39 a9e3 1cbc 57a4 63bc 444c 7e3a
00000270: 1981 4a3b 7e13 3bbc 6d98 70bc 09ae d93b
00000280: 1f7b 25bc d688 6abc 3699 a63b 771c c4bb
00000290: 24d2 19bc aecb 5dbc a076 a4bc 3a06 71bc
000002a0: 003b 863c 7898 dcbc a336 54bc 7537 1f3c
000002b0: aded 6f3b 7a85 88bc 6918 88bc 8214 c43b
000002c0: fa2c 443c ff04 72bc dd2a 2dbb 2b63 e7bb
000002d0: 8e36 54bc 4576 80bb 9efc dbbb 75d4 70bc
000002e0: 6b74 123c 032d af3b 2912 fdbb be87 dcbb
000002f0: bcd6 18bc 1e89 cabc 9617 dbbc 8179 873c
00000300: 4fcf e4bc 8473 88bb 76eb 173c 6f4e c63b
00000310: 476a 283c ec3b 4a3c fbea 463b 4036 193a
00000320: aa84 103c 4012 bf3b 2d25 ebbb 3c4c f3bb
00000330: 5b44 7d3b 56c6 673b 8429 cf3b cf4e 773c
00000340: a063 743c f6a4 d1b9 2125 493c 1368 763b
00000350: 881a ecb9 afd7 383c 42e8 b6bb 1b57 3d3c
00000360: 545c 1339 8c07 873c 309d 0a3c b3ae 743c
00000370: ea28 3abb 0662 313c 8e58 58bc 71e8 63bb
00000380: 9251 eabb c828 133c 9b5e dbbb f697 dcbb
00000390: d5e0 183c d8d0 deba e515 8d3b 9890 8ebc
000003a0: 8bf8 553c 012b b13b 1be1 7bbc 951b 1dbc
000003b0: a16b 9ebb 9994 8c3c 3f49 a03b e37a c83b
000003c0: 754f 24bc ff36 88bb b4fd 8fbc 73e0 3a3c
000003d0: ef61 15bb fde0 b3ba 5cc5 6cbc 0c23 12bc
000003e0: 5e8f 183b aa3d 33bc 10c1 3e3b a460 97bb
000003f0: de8e 113b 0495 a7bb 63fb 873b accd 943b
-0.019986445 -0.0014797162 -0.008613335 0.010472839 0.009059445 0.011571371 0.01282051 0.016512742
-0.00047237342 0.012559516 0.003393007 0.010562354 -0.02093432 -0.008967561 -0.018594177 -0.015435577
0.005538216 0.0066338195 0.010584888 -0.000120910925 -0.020652192 0.010036514 0.011511017 0.004893455
-0.004315127 -0.006540164 0.00097514683 0.01953925 0.01212699 0.006305288 0.0012399448 0.009061505
-0.0074015805 -0.0033599315 0.00043282966 0.018185839 0.012109255 -0.014566409 -0.019098071 0.003193255
-0.017811963 -0.005697904 0.013810166 -0.021982139 -0.018972576 0.010618655 -0.00088609237 -0.006959416
0.012002144 -0.011874065 -0.017514316 -0.0045622922 -0.012391429 0.0048555573 -0.008389331 0.010334501
0.0012610811 -0.011928945 -0.0025133092 -0.013573594 -0.006245445 0.0020144612 -0.015649432 0.0068821316
0.0072692623 -0.013205613 -0.0030131235 -0.00065197475 -0.010644491 -0.010485293 -0.0035675403 0.010252606
-0.0105153425 -0.016887376 -0.0050213407 -0.0067979963 -0.015899902 0.0103940135 0.009697471 0.015698416
0.017128734 -0.012546528 0.010025145 0.013258772 0.0011023518 0.0033774036 -0.0028999427 0.0034718409
0.0058770743 -0.0131710805 0.009384217 -0.011493453 -0.0025157607 0.007563368 0.006592577 0.0027071163
0.008898397 -0.005156224 -0.017594656 0.0049269525 0.009545112 -0.0076422254 -0.013814794 0.015878698
-0.015499214 -0.012596446 0.0024227628 0.002113983 -0.0028424775 0.0029081577 -0.015885424 0.016701331
0.01273564 0.0152431475 0.01570322 0.004069944 0.012777502 -0.015903108 0.009566045 0.0017697088
-0.0053384774 0.00020119762 0.0036784369 0.008207062 -0.006145139 -0.006388275 0.00043972477 -0.007306429
0.013407838 0.013391393 0.008143566 -0.013093836 0.0142410025 -0.010076935 -0.00038896504 0.01193856
0.011951313 -0.008393122 -0.004689421 -0.016229942 -0.014213094 0.009996677 -0.001487535 -0.00918089
0.012789876 0.015323513 -0.010265925 0.0061526583 -0.00037626986 -0.011479502 0.0060959207 -0.0061366027
0.00016650892 -0.009575763 -0.013894162 0.00097006955 0.0030899702 -0.0114182215 -0.014684779 0.006643061
-0.010100155 -0.014314851 0.005084182 -0.0059848386 -0.00938848 -0.013537331 -0.020076096 -0.014710957
0.016385555 -0.026928172 -0.0129524795 0.009717812 0.0036610172 -0.01666521 -0.016613202 0.00598389
0.011973614 -0.014771699 -0.0026423254 -0.0070613823 -0.01295246 -0.003920349 -0.006713464 -0.014699091
0.008938889 0.005345942 -0.007723112 -0.006730049 -0.00932854 -0.024723586 -0.026744645 0.01653743
-0.027930884 -0.004164161 0.009272447 0.0060518305 0.010279245 0.012343388 0.0030352462 0.00058445707
0.008820692 0.005831033 -0.0071760626 -0.0074248593 0.003864548 0.003536602 0.0063220877 0.015094473
0.014916331 -0.00039986492 0.012276919 0.0037598654 -0.00045033195 0.011281892 -0.0055818865 0.011556412
0.00014053407 0.01648309 0.008460328 0.01493423 -0.0028405734 0.010826593 -0.013204707 -0.0034775997
-0.007150837 0.008981891 -0.0066946275 -0.0067319823 0.009330948 -0.0016999496 0.0043055885 -0.017402932
0.013059746 0.005406738 -0.015373494 -0.009589096 -0.0048346077 0.0171607 0.004891544 0.006118165
-0.01002871 -0.0041569467 -0.01757703 0.011406052 -0.0022793969 -0.0013723668 -0.014451351 -0.008919489
0.0023278813 -0.010939995 0.0029106773 -0.0046196748 0.00222104 -0.0051141996 0.0041498407 0.0045411196

bias f4 [2]
00000000: aade bc3c a2f2 d6bc
0.023055393 -0.026238743
